…
5232/5232 [==============================] - 11s 2ms/step - loss: 0.0957 - accuracy: 0.9565 - val_loss: 0.1345 - val_accuracy: 0.9459
Epoch with maximum validation accuracy: 173
Maximum validation accuracy: 0.9496774077415466
Epoch with minimum validation loss: 128
Minimum validation loss: 0.12306610494852066
d:\miniconda\UNSW-NB15\testing\models\deep_20_model_ANN5_hp.keras  saved
Model: "sequential"
_________________________________________________________________
 Layer (type)                Output Shape              Param #
=================================================================
 dense (Dense)               (None, 256)               5376

 dense_1 (Dense)             (None, 128)               32896

 dropout (Dropout)           (None, 128)               0

 dense_2 (Dense)             (None, 64)                8256

 dropout_1 (Dropout)         (None, 64)                0

 dense_3 (Dense)             (None, 32)                2080

 dropout_2 (Dropout)         (None, 32)                0

 dense_4 (Dense)             (None, 16)                528

 dropout_3 (Dropout)         (None, 16)                0

 dense_5 (Dense)             (None, 8)                 136

 dropout_4 (Dropout)         (None, 8)                 0

 dense_6 (Dense)             (None, 4)                 36

 dropout_5 (Dropout)         (None, 4)                 0

 dense_7 (Dense)             (None, 1)                 5

=================================================================
Total params: 49,313
Trainable params: 49,313
Non-trainable params: 0
_________________________________________________________________
WARNING:tensorflow:AutoGraph could not transform <function Model.make_predict_function.<locals>.predict_function at 0x000001F13BC114C8> and will run it as-is.
Cause: Unable to locate the s
…
5232/5232 [==============================] - 11s 2ms/step - loss: 0.0287 - accuracy: 0.9887 - val_loss: 0.0618 - val_accuracy: 0.9811
Epoch with maximum validation accuracy: 131
Maximum validation accuracy: 0.9826881885528564
Epoch with minimum validation loss: 85
Minimum validation loss: 0.049767978489398956
d:\miniconda\UNSW-NB15\testing\models\deep_40_model_ANN5_hp.keras  saved
Model: "sequential"
_________________________________________________________________
 Layer (type)                Output Shape              Param #
=================================================================
 dense (Dense)               (None, 256)               10496

 dense_1 (Dense)             (None, 128)               32896

 dropout (Dropout)           (None, 128)               0

 dense_2 (Dense)             (None, 64)                8256

 dropout_1 (Dropout)         (None, 64)                0

 dense_3 (Dense)             (None, 32)                2080

 dropout_2 (Dropout)         (None, 32)                0

 dense_4 (Dense)             (None, 16)                528

 dropout_3 (Dropout)         (None, 16)                0

 dense_5 (Dense)             (None, 8)                 136

 dropout_4 (Dropout)         (None, 8)                 0

 dense_6 (Dense)             (None, 4)                 36

 dropout_5 (Dropout)         (None, 4)                 0

 dense_7 (Dense)             (None, 1)                 5

=================================================================
Total params: 54,433
Trainable params: 54,433
Non-trainable params: 0
_________________________________________________________________
WARNING:tensorflow:AutoGraph could not transform <function Model.make_predict_function.<locals>.predict_function at 0x00000256848004C8> and will run it as-is.
Cause: Unable to locate the s
…
