…
2024-05-19 13:12:14.202651: I tensorflow/core/platform/cpu_feature_guard.cc:193] This TensorFlow binary is optimized with oneAPI Deep Neural Network Library (oneDNN) to use the following CPU instructions in performance-critical operations:  AVX AVX2
To enable them in other operations, rebuild TensorFlow with the appropriate compiler flags.
Model: "model"
__________________________________________________________________________________________________
 Layer (type)                   Output Shape         Param #     Connected to

==================================================================================================
 input_1 (InputLayer)           [(None, 20)]         0           []



 sequential (Sequential)        (None, 1)            11265       ['input_1[0][0]']


 sequential_1 (Sequential)      (None, 1)            49313       ['input_1[0][0]']


 tf.math.multiply (TFOpLambda)  (None, 1)            0           ['sequential[0][0]']


 tf.math.multiply_1 (TFOpLambda  (None, 1)           0           ['sequential_1[0][0]']
 )



 average (Average)              (None, 1)            0           ['tf.math.multiply[0][0]',
                                                                  'tf.math.multiply_1[0][0]']


 dense_10 (Dense)               (None, 128)          256         ['average[0][0]']


 dense_11 (Dense)               (None, 64)           8256        ['dense_10[0][0]']


 dense_12 (Dense)               (None, 1)            65          ['dense_11[0][0]']


==================================================================================================
Total params: 69,155
Trainable params: 69,155
Non-trainable params: 0
__________________________________________________________________________________________________
None
Epoch 1/500
   1/5232 [..............................] - ETA: 4:09:19 - loss: 0.6913 -
…
2024-05-19 13:52:12.902201: I tensorflow/core/platform/cpu_feature_guard.cc:193] This TensorFlow binary is optimized with oneAPI Deep Neural Network Library (oneDNN) to use the following CPU instructions in performance-critical operations:  AVX AVX2
To enable them in other operations, rebuild TensorFlow with the appropriate compiler flags.
Model: "model"
__________________________________________________________________________________________________
 Layer (type)                   Output Shape         Param #     Connected to
==================================================================================================
 input_1 (InputLayer)           [(None, 20)]         0           []

 sequential (Sequential)        (None, 1)            11265       ['input_1[0][0]']

 sequential_1 (Sequential)      (None, 1)            49313       ['input_1[0][0]']

 tf.math.multiply (TFOpLambda)  (None, 1)            0           ['sequential[0][0]']

 tf.math.multiply_1 (TFOpLambda  (None, 1)           0           ['sequential_1[0][0]']
 )

 concatenate (Concatenate)      (None, 2)            0           ['tf.math.multiply[0][0]',
                                                                  'tf.math.multiply_1[0][0]']

 dense_10 (Dense)               (None, 128)          384         ['concatenate[0][0]']

 dense_11 (Dense)               (None, 64)           8256        ['dense_10[0][0]']

 dense_12 (Dense)               (None, 1)            65          ['dense_11[0][0]']

==================================================================================================
Total params: 69,283
Trainable params: 69,283
Non-trainable params: 0
__________________________________________________________________________________________________
None
Epoch 1/500
5215/5232 [============================>.] - ETA: 0s - loss: 0.1942 - accuracy: 0.9050
…
2024-05-19 15:05:10.807913: I tensorflow/core/platform/cpu_feature_guard.cc:193] This TensorFlow binary is optimized with oneAPI Deep Neural Network Library (oneDNN) to use the following CPU instructions in performance-critical operations:  AVX AVX2
To enable them in other operations, rebuild TensorFlow with the appropriate compiler flags.
Model: "model"
__________________________________________________________________________________________________
 Layer (type)                   Output Shape         Param #     Connected to
==================================================================================================
 input_1 (InputLayer)           [(None, 20)]         0           []

 sequential (Sequential)        (None, 1)            11265       ['input_1[0][0]']

 sequential_1 (Sequential)      (None, 1)            49313       ['input_1[0][0]']

 maximum (Maximum)              (None, 1)            0           ['sequential[0][0]',
                                                                  'sequential_1[0][0]']

 dense_10 (Dense)               (None, 128)          256         ['maximum[0][0]']

 dense_11 (Dense)               (None, 64)           8256        ['dense_10[0][0]']

 dense_12 (Dense)               (None, 1)            65          ['dense_11[0][0]']

==================================================================================================
Total params: 69,155
Trainable params: 69,155
Non-trainable params: 0
__________________________________________________________________________________________________
None
Epoch 1/500
5231/5232 [============================>.] - ETA: 0s - loss: 0.2093 - accuracy: 0.9014
…
