…
2024-05-19 01:55:19.134639: I tensorflow/core/platform/cpu_feature_guard.cc:193] This TensorFlow binary is optimized with oneAPI Deep Neural Network Library (oneDNN) to use the following CPU instructions in performance-critical operations:  AVX AVX2
To enable them in other operations, rebuild TensorFlow with the appropriate compiler flags.
Model: "model"
__________________________________________________________________________________________________
 Layer (type)                   Output Shape         Param #     Connected to
==================================================================================================
 input_1 (InputLayer)           [(None, 40)]         0           []

 sequential (Sequential)        (None, 1)            21505       ['input_1[0][0]']

 sequential_1 (Sequential)      (None, 1)            54433       ['input_1[0][0]']

 tf.math.multiply (TFOpLambda)  (None, 1)            0           ['sequential[0][0]']

 tf.math.multiply_1 (TFOpLambda  (None, 1)           0           ['sequential_1[0][0]']
 )

 average (Average)              (None, 1)            0           ['tf.math.multiply[0][0]',
                                                                  'tf.math.multiply_1[0][0]']

 dense_10 (Dense)               (None, 128)          256         ['average[0][0]']

 dense_11 (Dense)               (None, 64)           8256        ['dense_10[0][0]']

 dense_12 (Dense)               (None, 1)            65          ['dense_11[0][0]']

==================================================================================================
Total params: 84,515
Trainable params: 84,515
Non-trainable params: 0
__________________________________________________________________________________________________
None
Epoch 1/500
5226/5232 [============================>.] - ETA: 0s - loss: 0.1694 - accuracy: 0.9240
…
2024-05-19 02:27:00.572639: I tensorflow/core/platform/cpu_feature_guard.cc:193] This TensorFlow binary is optimized with oneAPI Deep Neural Network Library (oneDNN) to use the following CPU instructions in performance-critical operations:  AVX AVX2
To enable them in other operations, rebuild TensorFlow with the appropriate compiler flags.
Model: "model"
__________________________________________________________________________________________________
 Layer (type)                   Output Shape         Param #     Connected to
==================================================================================================
 input_1 (InputLayer)           [(None, 40)]         0           []

 sequential (Sequential)        (None, 1)            21505       ['input_1[0][0]']

 sequential_1 (Sequential)      (None, 1)            54433       ['input_1[0][0]']

 tf.math.multiply (TFOpLambda)  (None, 1)            0           ['sequential[0][0]']

 tf.math.multiply_1 (TFOpLambda  (None, 1)           0           ['sequential_1[0][0]']
 )

 concatenate (Concatenate)      (None, 2)            0           ['tf.math.multiply[0][0]',
                                                                  'tf.math.multiply_1[0][0]']

 dense_10 (Dense)               (None, 128)          384         ['concatenate[0][0]']

 dense_11 (Dense)               (None, 64)           8256        ['dense_10[0][0]']

 dense_12 (Dense)               (None, 1)            65          ['dense_11[0][0]']

==================================================================================================
Total params: 84,643
Trainable params: 84,643
Non-trainable params: 0
__________________________________________________________________________________________________
None
Epoch 1/500
5209/5232 [============================>.] - ETA: 0s - loss: 0.1702 - accuracy: 0.9205
…
2024-05-19 03:13:47.801580: I tensorflow/core/platform/cpu_feature_guard.cc:193] This TensorFlow binary is optimized with oneAPI Deep Neural Network Library (oneDNN) to use the following CPU instructions in performance-critical operations:  AVX AVX2
To enable them in other operations, rebuild TensorFlow with the appropriate compiler flags.
Model: "model"
__________________________________________________________________________________________________
 Layer (type)                   Output Shape         Param #     Connected to
==================================================================================================
 input_1 (InputLayer)           [(None, 40)]         0           []

 sequential (Sequential)        (None, 1)            21505       ['input_1[0][0]']

 sequential_1 (Sequential)      (None, 1)            54433       ['input_1[0][0]']

 maximum (Maximum)              (None, 1)            0           ['sequential[0][0]',
                                                                  'sequential_1[0][0]']

 dense_10 (Dense)               (None, 128)          256         ['maximum[0][0]']

 dense_11 (Dense)               (None, 64)           8256        ['dense_10[0][0]']

 dense_12 (Dense)               (None, 1)            65          ['dense_11[0][0]']

==================================================================================================
Total params: 84,515
Trainable params: 84,515
Non-trainable params: 0
__________________________________________________________________________________________________
None
Epoch 1/500
5212/5232 [============================>.] - ETA: 0s - loss: 0.1799 - accuracy: 0.9205
…
